…
Complexity #  MDL Loss #  Expression
18.14 40.62 sqrt(666.000000000000+pi)
46.61 35.89 1/(-0.000016349848+((pi*(pi-x2)))**(-1))
52.65 35.87 1/(-0.382281554140*(x2)**(-1))
53.19 34.94 -25.603099287644+pi
53.35 34.94 -7.165427314475*pi
56.93 34.91 -25.492588209487+(-x0)
56.93 34.88 -25.507811499258+(-x1)
58.61 34.51 -54.417247289741+(x0*x0)
60.51 33.61 -64.059986023556+(x1*x0)
63.7 31.61 -16.014996505889+((x1*x0)-(x2+x2))
68.53 31.12 11.407377723538+((x1*x0)-(x2*pi))
115.42 27.92 1.239758519551+((x1*x0)-exp((log(x2)+1)))

Training a NN on the data... 

NN loss:  (tensor(0.0021, grad_fn=<DivBackward0>), SimpleNet(
  (linear1): Linear(in_features=3, out_features=128, bias=True)
  (linear2): Linear(in_features=128, out_features=128, bias=True)
  (linear3): Linear(in_features=128, out_features=64, bias=True)
  (linear4): Linear(in_features=64, out_features=64, bias=True)
  (linear5): Linear(in_features=64, out_features=1, bias=True)
)) 

Checking for symmetries...

Checking for separabilities...

Checking for compositionality...

Checking for generalized symmetry...
identify_decompositions ./ lorenz_z_data.txt_train
Trying (0, 1)
(0.44872677562412966, (0, 1))
Trying (0, 2)
(0.04302611939565548, (0, 2))
Trying (1, 2)
(0.056832607452509065, (1, 2))
mask [ True  True False]
Trying to solve mysteries with brute force...
…
Trying to solve results/mystery_world_squared/lorenz_z_data.txt_train-add_b
Rejection threshold.....    10.000
Bit margin..............     0.000
Checking polyfit 

Pareto frontier in the current branch:

Complexity #  MDL Loss #  Expression
18.14 39.7 sqrt(666.000000000000+pi)
50.36 33.82 0.178868076453+(x0*x0)
51.11 33.02 0.898151479141*(x1*x0)
56.85 31.42 -5.082488041658+(x1*x0)
72.5 31.41 -5.053450277923+(x0*(x1+((exp(pi)+1))**(-1)))
72.65 31.4 -5.616215556402+((exp((((x1*x0)+1))**(-1))-1))**(-1)

Training a NN on the data... 

NN loss:  (tensor(0.0013, grad_fn=<DivBackward0>), SimpleNet(
  (linear1): Linear(in_features=2, out_features=128, bias=True)
  (linear2): Linear(in_features=128, out_features=128, bias=True)
  (linear3): Linear(in_features=128, out_features=64, bias=True)
  (linear4): Linear(in_features=64, out_features=64, bias=True)
  (linear5): Linear(in_features=64, out_features=1, bias=True)
)) 

Checking for symmetries...

Checking for separabilities...

Checking for compositionality...

Checking for generalized symmetry...

Translational symmetry found for variables: 0 1
Checking for brute force + 

Trying to solve mysteries with brute force...
Trying to solve results/translated_data_multiply/lorenz_z_data.txt_train-add_b-translated_multiply
…
